…
_________________________________________________________________
 Layer (type)                Output Shape              Param #   
=================================================================
 input_1 (InputLayer)        [(None, 128, 128, 64, 1   0         
                             )]                                  
                                                                 
 conv3d (Conv3D)             (None, 126, 126, 62, 64   1792      
                             )                                   
                                                                 
 max_pooling3d (MaxPooling3  (None, 63, 63, 31, 64)    0         
 D)                                                              
                                                                 
 batch_normalization (Batch  (None, 63, 63, 31, 64)    256       
 Normalization)                                                  
                                                                 
 conv3d_1 (Conv3D)           (None, 61, 61, 29, 64)    110656    
                                                                 
 max_pooling3d_1 (MaxPoolin  (None, 30, 30, 14, 64)    0         
 g3D)                                                            
                                                                 
 batch_normalization_1 (Bat  (None, 30, 30, 14, 64)    256       
 chNormalization)                                                
                                                                 
 conv3d_2 (Conv3D)           (None, 28, 28, 12, 128)   221312    
                                                                 
 max_pooling3d_2 (MaxPoolin  (None, 14, 14, 6, 128)    0         
 g3D)                                                            
                                                                 
 batch_normalization_2 (Bat  (None, 14, 14, 6, 128)    512       
 chNormalization)                                                
                                                                 
 conv3d_3 (Conv3D)           (None, 12, 12, 4, 256)    884992    
                                                                 
 max_pooling3d_3 (MaxPoolin  (None, 6, 6, 2, 256)      0         
 g3D)                                                            
                                                                 
 batch_normalization_3 (Bat  (None, 6, 6, 2, 256)      1024      
 chNormalization)                                                
                                                                 
 global_average_pooling3d (  (None, 256)               0         
 GlobalAveragePooling3D)                                         
                                                                 
 dense (Dense)               (None, 512)               131584    
                                                                 
 dropout (Dropout)           (None, 512)               0         
                                                                 
 dense_1 (Dense)             (None, 1)                 513       
                                                                 
=================================================================
Total params: 1352897 (5.16 MB)
Trainable params: 1351873 (5.16 MB)
Non-trainable params: 1024 (4.00 KB)
_________________________________________________________________
Epoch 1/10
48/48 - 29s - loss: 0.5473 - acc: 0.7158 - val_loss: 0.3843 - val_acc: 1.0000 - 29s/epoch - 600ms/step
…
